AI_Code/seq2seq_GRU/model/seq2seq_model.pkl (torch, 109215 bytes, 20 tensors)

encoder.embedding.weight f4 [30, 100]
0	0xbe4f3e56	-0.20238623
1	0xbd7f8209	-0.06237987
2	0xbd28c686	-0.04120495
3	0xbdab6035	-0.083679594
4	0xbcec5d46	-0.02885307
5	0xbd1ce3d9	-0.03830323
6	0x3e0c1efd	0.13683696
7	0x3d019fd6	0.031646572
8	0x3e22b5c2	0.15889648
9	0x3d85ea48	0.06538826
10	0x3c590053	0.013244706
11	0xbea48cb6	-0.32138604
12	0xbe12f3a4	-0.14350754
13	0x3d5e7922	0.05431474
14	0x3ba1c946	0.0049373237
15	0xbb936529	-0.004498143
16	0xbddf3ff7	-0.10900872
17	0xbd3f0f10	-0.046645224
18	0xbd7ededc	-0.062224254
19	0x3e02db7d	0.1277904
20	0x3d490ae1	0.04908264
21	0xbda716c5	-0.0815864
22	0xbda31499	-0.07962913
23	0xbd945fe6	-0.07244854
24	0x3e13c44f	0.14430355
25	0x3d838b21	0.06423021
26	0xbe44add8	-0.19206941
27	0xbe36dbbb	-0.17857258
28	0xbd39af74	-0.04533334
29	0x3e363b35	0.17796023
30	0xbd4111cc	-0.047136113
31	0x3b9180e0	0.004440412
32	0xbe11bbdf	-0.14231823
33	0xbdf906b7	-0.12159484
34	0x3dc42ee8	0.09579259
35	0xbe126e7b	-0.14299957
36	0xbc699aab	-0.014258067
37	0x3bd34962	0.006447957
38	0x3dceb725	0.10093526
39	0x3e018f46	0.1265231
40	0x3d8a60f9	0.06756777
41	0x3dba6171	0.09100617
42	0x3d721521	0.05910218
43	0xbe764900	-0.24051285
44	0x3d9b6053	0.07586732
45	0x3e171b41	0.1475649
46	0x3c1b503a	0.009479577
47	0x3c49fe08	0.012328632
48	0xbbca1294	-0.0061667655
49	0xbe069b47	-0.13145171
50	0x3e02b0aa	0.12762704
51	0xbd80b120	-0.06283784
52	0xbd5cdc09	-0.05392078
53	0xbe475b8a	-0.19468513
54	0xbe1f4f8f	-0.15557693
55	0x3e0d2d28	0.13786757
56	0xbd4895cd	-0.048970986
57	0xbdd0659a	-0.10175629
58	0x3bdf252e	0.006809852
59	0xbd446195	-0.047944624
60	0xbd9d1368	-0.07669717
61	0xbea45f3d	-0.3210391
62	0x3df44088	0.11926371
63	0x3cd6a67c	0.026202433
64	0x3de8519a	0.11343689
65	0xbba3b033	-0.00499537
66	0x3d7caa9a	0.061686136
67	0x3e27a658	0.16372049
68	0xbdfbcf4e	-0.122953996
69	0x3e0db47a	0.13838378
70	0x3c8639c4	0.016384967
71	0xbe4060f5	-0.18786986
72	0xbc70cc49	-0.014697143
73	0x3c962312	0.01832727
74	0x3e4cc78d	0.19997998
75	0x3dd54112	0.10412802
76	0xbe27a516	-0.16371569
77	0x3da178e5	0.07884387
78	0x3e1c0943	0.15237908
79	0x3d8cdc3b	0.06877943
80	0x3e1e22ac	0.15442914
81	0x3dd2dd7e	0.102961525
82	0xbd17e36d	-0.037082125
83	0x3bc87be3	0.006118284
84	0xbc53a085	-0.012916689
85	0x3ce08220	0.027405798
86	0x3e4a85d2	0.19777611
87	0xbe173d24	-0.14769417
88	0x3e489381	0.19587518
89	0x3c948a3c	0.018132322
90	0xbdb92594	-0.090403706
91	0x3e396f31	0.18108822
92	0xbd4980a2	-0.04919494
93	0x3dcd3af9	0.10021014
94	0x3dd0e03a	0.10199018
95	0x3e00a147	0.12561522
96	0x3c9f9cf3	0.019484019
97	0xbe56f281	-0.20990945
98	0xbe7b85f2	-0.24562815
99	0xbdfce959	-0.12349195
100	0xbdbac62b	-0.09119829
101	0x3d8bcac6	0.06825785
102	0x3e172340	0.1475954
103	0xbde29d2a	-0.11065133
104	0xbdad29dd	-0.084552504
105	0xbdaa83d8	-0.083259284
106	0x3db8468c	0.08997831
107	0xbd971f49	-0.07379014
108	0xbd97ac81	-0.074059494
109	0xbd445848	-0.047935754
110	0x3de01ff7	0.10943597
111	0x3d8498ae	0.06474434
112	0x3db7cf7e	0.08975123
113	0xbd834d8f	-0.064112775
114	0x3d942127	0.07232886
115	0x3dafb8e6	0.085801885
116	0xbd71baf1	-0.05901617
117	0x3d911395	0.07083813
118	0xbd9ec2a6	-0.0775197
119	0xbd377b65	-0.044795413
120	0xbd91182d	-0.07084689
121	0xbe119ea3	-0.14220671
122	0x3d65c8a1	0.056099538
123	0xbe5e7d2e	-0.2172744
124	0xbddce551	-0.10785926
125	0x3cc59257	0.024117632
126	0xbd5e2f20	-0.05424416
127	0xbc3cab93	-0.011515516
128	0xbe20c5e5	-0.15700491
129	0x3e9d76f0	0.30754805
130	0x3dafc7ac	0.08583006
131	0xbb964d3d	-0.0045868442
132	0x3e916016	0.2839362
133	0x3d8b5be3	0.068046354
134	0xbdab5daa	-0.083674744
135	0xbdd9650c	-0.10614976
136	0xbdcca68b	-0.09992703
137	0xbdd0265c	-0.101635665
138	0x3a793dba	0.0009507794
139	0x3dde8c2d	0.1086658
140	0x3ded38e0	0.11583114
141	0x3dbb4e11	0.09145749
142	0x3dfe763c	0.12424895
143	0x3e7e7dc3	0.24852662
144	0x3d12ff52	0.035888024
145	0xbeb7bec6	-0.35887736
146	0xbcfacd76	-0.03061555
147	0xbcb2ae91	-0.021811755
148	0x3c6b52a7	0.014362968
149	0xbde52b37	-0.11189883
150	0xbe06beed	-0.1315877
151	0xbdcf4ae4	-0.10121706
152	0x3e118915	0.14212449
153	0xbcd81bd7	-0.026380463
154	0xbe660ee6	-0.22466621
155	0xbd8f5eb3	-0.07000484
156	0xbd06ba46	-0.032892488
157	0xbe4eb396	-0.20185694
158	0x3dc3a8b1	0.0955366
159	0xbe4dadae	-0.20085785
160	0x3dfe61d1	0.12421001
161	0xbe6dd036	-0.23223957
162	0x3d880509	0.066415854
163	0x3dd79a14	0.10527435
164	0xbe0e0d11	-0.13872172
165	0x3b15a44a	0.002283352
166	0xbd424f4a	-0.047438897
167	0xbd477585	-0.04869606
168	0x3bde4153	0.0067826896
169	0xbd302007	-0.042999294
170	0x3decb13a	0.11557241
171	0xbd93b8af	-0.0721296
172	0x3d6e781d	0.058220018
173	0xbd3971e9	-0.04527465
174	0xbce28324	-0.027650423
175	0x3e04bc6e	0.12962505
176	0xbcde1b84	-0.02711273
177	0x3d35442e	0.044254474
178	0x3c3a438f	0.011368646
179	0x3e024c75	0.12724479
180	0xbde5ce48	-0.11220986
181	0xbc44c723	-0.0120103685
182	0xbe155848	-0.14584458
183	0xbd8d42eb	-0.06897529
184	0x3db1c031	0.08679236
185	0x3dc2541f	0.09488701
186	0xbdab4346	-0.08362441
187	0xbe2d89eb	-0.16947143
188	0x3d9fbf34	0.07800141
189	0xbd976c68	-0.07393724
190	0x3e69c81b	0.2283024
191	0xbddc0c08	-0.10744482
192	0x3e5ce9d8	0.2157358
193	0xbd4a2c8f	-0.0493589
194	0xbd95e9e2	-0.0732
195	0x3e0f81fe	0.14014432
196	0xbd619728	-0.055075794
197	0xbe33f3ac	-0.17573422
198	0xbca05dad	-0.019575918
199	0x3e18c234	0.14917833
200	0xbd0865d2	-0.03330023
201	0x3d62481d	0.055244554
202	0x3df7f817	0.12107866
203	0xbdb76889	-0.089554854
204	0xbcd8298c	-0.026386999
205	0x3daabd28	0.0833686
206	0x3df4b8a9	0.11949284
207	0xbe5ff924	-0.21872383
208	0x3e6459a1	0.22299816
209	0x3e3bc6f1	0.18337609
210	0xbd47dc12	-0.04879386
211	0x3dd20908	0.10255629
212	0xbd09abd2	-0.033611126
213	0x3e582d09	0.2111093
214	0xbe417e53	-0.18895845
215	0x3e63285b	0.22183363
216	0xbda2f86a	-0.079575375
217	0xbcda9fb8	-0.026687488
218	0x3d547209	0.051866565
219	0xbdf86b41	-0.12129832
220	0xbe09c6b2	-0.13454702
221	0x3dae86cb	0.085218035
222	0x3d97f2b4	0.07419339
223	0x3dcb2442	0.09919025
224	0x3dd5d465	0.10440902
225	0xbc2ce712	-0.010553138
226	0xbd74606f	-0.05966228
227	0xbe2bc512	-0.16774395
228	0xbe6501f7	-0.22364031
229	0xbd7f2748	-0.06229332
230	0xbe452a03	-0.19254307
231	0x3e700e85	0.23443039
232	0xbcfd11f6	-0.030892354
233	0x3dad3fe0	0.08459449
234	0xbd918f53	-0.07107415
235	0xbcae5893	-0.02128247
236	0x3e547be9	0.20750393
237	0xbd0723e4	-0.032993212
238	0x3dc2a7b8	0.09504646
239	0xbe677bd6	-0.22605833
240	0xbcd8e420	-0.026475966
241	0x3cf8ad20	0.03035599
242	0xbe68816a	-0.22705618
243	0x3d0f1772	0.03493447
244	0x3ccc51f9	0.024941431
245	0x3c3d707c	0.011562463
246	0xbe0339a2	-0.12814954
247	0xbba4ca0d	-0.005028969
248	0xbddee57d	-0.10883615
249	0x3d983031	0.07431067
250	0x3dfa7933	0.12230148
251	0xbe30b5d9	-0.1725687
252	0x3cde00ce	0.027099993
253	0xbd90832a	-0.070562676
254	0xbe410418	-0.18849218
255	0x3c7c9402	0.015416147

encoder.gru.weight_ih_l0 f4 [60, 100]
0	0xbb848942	-0.0040446827
1	0xbc28188d	-0.01025976
2	0xbbf5f8b3	-0.007506454
3	0xbeec0e49	-0.4610465
4	0x3ec178f1	0.37787583
5	0xbeb7b314	-0.35878813
6	0xbc3bf0b9	-0.011470967
7	0x3d144d8d	0.03620677
8	0xbd512ad4	-0.051066235
9	0xbd2c821e	-0.042116277
10	0x3f0d8647	0.55283016
11	0x3e0e98ba	0.13925448
12	0xbec894c4	-0.39176
13	0xbdcd4260	-0.10022426
14	0xba943aea	-0.0011309062
15	0xbe7385bb	-0.23781483
16	0xbd023ea8	-0.031798035
17	0xbd5616dc	-0.052267894
18	0xbd88882f	-0.066666
19	0xbcba9432	-0.022775743
20	0x3ec2734b	0.37978587
21	0x3e1eba4b	0.15500753
22	0x3d17b28a	0.037035502
23	0x3be10165	0.0068666213
24	0x3c9e7f87	0.01934792
25	0x3c1b2712	0.009469764
26	0xbeb556bf	-0.35417745
27	0x3e109c7e	0.14122197
28	0xbd9c4979	-0.07631201
29	0xbbcdf1fc	-0.0062849503
30	0xbde8499a	-0.113421634
31	0x3dcc6a92	0.09981264
32	0xbbfaa5a5	-0.007649141
33	0xbd20994b	-0.03920869
34	0xbd3d83d6	-0.046268307
35	0xbbaa40e1	-0.0051957224
36	0xbe2c1466	-0.16804656
37	0xbeb21e0d	-0.34788552
38	0x3e45cf91	0.19317462
39	0xbf284ee2	-0.65745366
40	0x3c9c3b61	0.019071283
41	0xbedc06fb	-0.42974076
42	0x3bfb97e4	0.007678019
43	0x3bf20e3e	0.0073869517
44	0x3eabd0cb	0.33557734
45	0xbe372168	-0.17883837
46	0xbc3929b6	-0.011301449
47	0xbdc684ce	-0.09693299
48	0x3c5a96a7	0.013341582
49	0x3dc057d4	0.09391752
50	0xbd515cc6	-0.051113866
51	0xbe15741e	-0.14595076
52	0xbe8a43e8	-0.27004933
53	0xbd356ec8	-0.044295102
54	0xbeb114ad	-0.34586087
55	0xbba75cf9	-0.0051075188
56	0x3b5f4e0f	0.0034073626
57	0x3ece1312	0.40248924
58	0xbe168c61	-0.14701988
59	0x3cb7dffc	0.022445671
60	0xbf06eefc	-0.5270841
61	0x3bcda46b	0.0062757037
62	0x3f635fd0	0.88818073
63	0xbf09c950	-0.53822803
64	0xbe630d53	-0.22173052
65	0xbd4773ef	-0.048694547
66	0x3d1774bc	0.03697656
67	0xbc1edeec	-0.009696703
68	0x3d0afa3f	0.03393006
69	0x3bda5ba9	0.006663759
70	0x3d8d5ca9	0.06902439
71	0x3ccc3318	0.024926707
72	0xbf487ddd	-0.7831705
73	0xbc8c1fdf	-0.017105041
74	0x3f2d4ae9	0.6769243
75	0xbd483ba6	-0.04888501
76	0xbf45615a	-0.7710167
77	0xbc620137	-0.013794235
78	0x3c4049a8	0.011736311
79	0x3ea007e6	0.31256026
80	0xbd73caf1	-0.059519712
81	0x3d0d33f0	0.03447336
82	0x3bb11eff	0.0054053064
83	0x3e34e828	0.17666686
84	0x3b8d8b55	0.004319588
85	0x3f1d745c	0.61505675
86	0x3ee88f78	0.45421958
87	0x3f0500bb	0.5195424
88	0xbdd8ad8d	-0.10579977
89	0xbe556e3b	-0.20842831
90	0x3f733f1c	0.9501817
91	0xbdd6b655	-0.10483996
92	0x3ce4563f	0.027873157
93	0x3e7feb7e	0.24992177
94	0x3c4df5f5	0.012570848
95	0xbcfdf5e7	-0.031001044
96	0x3e43e7d1	0.191314
97	0xbd0258eb	-0.03182308
98	0xbe139d13	-0.14415388
99	0xbd22effd	-0.039779652
100	0x3cd72175	0.02626107
101	0xbcb11761	-0.021617593
102	0xbc96b3c8	-0.018396273
103	0xbe579c9e	-0.21055838
104	0xbea1037a	-0.31447965
105	0x3f73a155	0.9516805
106	0xbd8ea17c	-0.069643945
107	0xbc07fb47	-0.008299655
108	0xbe3815a4	-0.17977005
109	0x3c9156f8	0.017741665
110	0xbf3dac0f	-0.74090666
111	0xbef642db	-0.48097882
112	0xbd93b865	-0.07212905
113	0xbf3348c6	-0.7003292
114	0x3d18baa4	0.03728737
115	0x3e9fa76c	0.3118242
116	0x3cafb3ac	0.021447979
117	0x3ccecd52	0.025244389
118	0xbca2b2c3	-0.01986063
119	0x3d1b9ce0	0.037991405
120	0x3e67a029	0.2261969
121	0xbedfb576	-0.4369313
122	0xba9098fa	-0.0011031919
123	0x3cdff43e	0.027338143
124	0xbd1b0d17	-0.03785428
125	0xbc5150ef	-0.012775644
126	0x3eb1b1b0	0.34705877
127	0x3f482fe4	0.78198075
128	0x3ecdd3b6	0.40200585
129	0x3d48f5dd	0.0490626
130	0xbd77d92d	-0.06050985
131	0xbe732751	-0.23745467
132	0x3d4958b7	0.04915687
133	0x3c92c9bc	0.01791846
134	0xbee69371	-0.45034364
135	0xbc9342b2	-0.017976139
136	0x3d7a84eb	0.061161917
137	0xbd01d3bf	-0.031696077
138	0xbf95aa3f	-1.169258
139	0xbd9bf12f	-0.076143615
140	0xbd617f14	-0.05505283
141	0xbf2a1464	-0.66437364
142	0x3b843e3a	0.0040357383
143	0x3d2877c5	0.041129846
144	0xbd4a7522	-0.049428113
145	0xbd95d1b0	-0.07315385
146	0xbdbd5428	-0.09244567
147	0xbdeaba2e	-0.11461292
148	0x3cc09d69	0.023512559
149	0xbf52c857	-0.82336944
150	0x3e68aa8b	0.22721307
151	0x3d381c2c	0.04494874
152	0x3daf352b	0.08555063
153	0xbcf4148a	-0.02979495
154	0xbf8c17d5	-1.0944773
155	0x3c013d97	0.007888219
156	0xbe843df3	-0.25828514
157	0xbe11b26a	-0.14228216
158	0x3cdde02e	0.027084436
159	0x3b9fb93b	0.004874376
160	0xbd8b9537	-0.0681557
161	0xbe7b98e6	-0.24570045
162	0xbc9fc08f	-0.019500999
163	0x3de0d6e9	0.10978491
164	0x3ce7da66	0.028302383
165	0x3eb7c06d	0.35888997
166	0xbdb11d60	-0.08648181
167	0xbb768093	-0.0037613257
168	0xbb1e141f	-0.002412088
169	0x3cf7fd6b	0.030272206
170	0xbd8a5fd8	-0.06756562
171	0x3d030b8b	0.03199343
172	0xbf1398b2	-0.5765487
173	0xbce65c9f	-0.028120337
174	0x3d9e47da	0.07728548
175	0x3d73257d	0.059361923
176	0xbe7f8d05	-0.24956138
177	0x3c4949fe	0.0122857075
178	0x3cd3c3c8	0.025850192
179	0xbf2e668a	-0.6812521
180	0xbd0ef8ca	-0.034905232
181	0xbbb88d0f	-0.00563205
182	0xbcff9ac1	-0.031201722
183	0xbe6cc6db	-0.23122732
184	0x3cf96961	0.030445756
185	0xbf1c4e31	-0.6105681
186	0x3e93a8ad	0.28839627
187	0x3c6e96fc	0.014562365
188	0x3ce23872	0.027614806
189	0x3e45def2	0.19323328
190	0xbd74a886	-0.05973103
191	0xbeecfc1f	-0.46286103
192	0x3cc1e189	0.023667114
193	0xbefb53cb	-0.49087366
194	0xbd755d15	-0.059903223
195	0xbd648ebb	-0.05580018
196	0x3f466f89	0.7751394
197	0x3c9effd8	0.019409105
198	0x3fb60448	1.4220057
199	0x3c4ca49e	0.01249042
200	0xbb2adc89	-0.002607139
201	0xbce1d9d2	-0.027569685
202	0x3cbedf88	0.023299947
203	0xbe035b5a	-0.12827817
204	0xbf19650d	-0.59919816
205	0x3e425c11	0.18980433
206	0x3d124704	0.035712257
207	0x3c89af72	0.016807292
208	0x3dbb0120	0.09131074
209	0x3d628938	0.055306643
210	0xbe843e8e	-0.25828975
211	0x3eab5a8d	0.33467522
212	0xbd8d637b	-0.0690374
213	0xbee763cb	-0.45193323
214	0xba7582bf	-0.0009365491
215	0x3db50fd1	0.08840907
216	0xbc4e62e8	-0.012596823
217	0xbcadd5df	-0.021220146
218	0x3b155edb	0.0022792134
219	0xbb8a291d	-0.004216327
220	0x3e8cd92f	0.27509448
221	0x3ea60020	0.3242197
222	0xb8be5a3a	-9.076712e-05
223	0xbc07e61b	-0.0082946075
224	0x3c1e99bb	0.009680207
225	0x3c3b15a6	0.011418736
226	0xbcd14036	-0.025543313
227	0x3e12bbe7	0.14329492
228	0x3d066246	0.032808565
229	0xbc712b3f	-0.014719783
230	0x3e391ad2	0.18076637
231	0x3cae2912	0.021259818
232	0xbd1b1f4d	-0.037871648
233	0x3bffdc47	0.0078082415
234	0xbee6f635	-0.45109716
235	0x3c828c90	0.015936166
236	0xbe62b113	-0.22137861
237	0x3b6daa1d	0.0036264725
238	0x3d11b693	0.035574507
239	0x3ca291b4	0.019844867
240	0x3d17b685	0.0370393
241	0x3e13f56e	0.14449093
242	0xbd23e3b4	-0.040012076
243	0xbc85635e	-0.016282734
244	0x3e5fb6a7	0.2184702
245	0x3c939e2f	0.018019764
246	0x3cfe169e	0.031016644
247	0x3d337a8d	0.043818045
248	0x3bfedc1e	0.007777705
249	0xbe8c1c7a	-0.27365476
250	0x3ef2b4de	0.47403616
251	0x3d1443ed	0.03619759
252	0xbd047c65	-0.032345194
253	0x3b821118	0.003969323
254	0xbdda79f4	-0.10667792
255	0x3b027651	0.0019906948

encoder.gru.weight_hh_l0 f4 [60, 20]
0	0x3fb70862	1.4299433
1	0x3ee2ddea	0.44309932
2	0xbeef6163	-0.46753988
3	0x3f07e41b	0.53082436
4	0xbf19c6cd	-0.6006897
5	0xbf57c417	-0.84283584
6	0x3cc083f0	0.023500413
7	0x3e4a5df8	0.19762409
8	0x3dfe2eb0	0.12411249
9	0xbeedf532	-0.46476132
10	0x3f4f94ca	0.8108641
11	0xbe4e0256	-0.20118079
12	0xbea0c94a	-0.3140357
13	0x3e7c3a53	0.24631624
14	0x3face7ff	1.35083
15	0xbd519d6b	-0.051175516
16	0x3d876951	0.066118844
17	0xbdab91f1	-0.083774455
18	0xbfc570e1	-1.5425073
19	0xbfa90427	-1.3204392
20	0xbf8f5fd9	-1.1201125
21	0x3fc2af37	1.5209721
22	0xbf1e9c8b	-0.61957616
23	0xbf13773c	-0.5760381
24	0x3f8f3de2	1.119076
25	0x3dfa5317	0.122228794
26	0xbdf216d7	-0.118207626
27	0xbf848b78	-1.0355062
28	0x3f7f1b36	0.99650896
29	0x3fa452dc	1.2837787
30	0xbfea6288	-1.8311319
31	0x3f606d73	0.87667006
32	0x3ecc2733	0.39873657
33	0x3ed5ff11	0.41796163
34	0x3f88b57b	1.0680383
35	0x3f256637	0.6460909
36	0xbeabab93	-0.33529338
37	0xbf11ebe8	-0.5700059
38	0x3fc8544c	1.5650725
39	0x4010d914	2.2632494
40	0x4022576b	2.5365856
41	0xbebcf875	-0.36908308
42	0x3e845562	0.25846392
43	0x3fae7452	1.3629248
44	0x3f434570	0.7627783
45	0x3f0e8724	0.5567496
46	0x3daa0bc1	0.08303023
47	0x3e067515	0.13130601
48	0xbeca7740	-0.39544106
49	0xbf5eb6db	-0.86997765
50	0xbf4c17df	-0.79723924
51	0xbf8a5410	-1.0806904
52	0xbfd4dccb	-1.6629881
53	0xbf1ef1cd	-0.6208771
54	0x3e9dd1dc	0.30824172
55	0xbdc2ab42	-0.09505321
56	0xbfae1b98	-1.3602171
57	0x3e31a383	0.17347531
58	0xc0071e01	-2.1112063
59	0x3ec4e685	0.38457122
60	0x3f30f1cf	0.6911897
61	0x3e1f458c	0.15553874
62	0x3fac73f8	1.3472891
63	0xbe88efcc	-0.2674545
64	0x3cf7ec82	0.030264143
65	0x3ee7941d	0.4523019
66	0x3de9c15f	0.11413836
67	0x3c63b7dc	0.013898816
68	0xbf6baf7f	-0.9206466
69	0x3df3a44e	0.11896573
70	0xbf3e02a0	-0.74222755
71	0xbe6a6edb	-0.2289385
72	0xbf8b0bc0	-1.0862961
73	0x3f014034	0.5048859
74	0x3f137a54	0.5760853
75	0xbef3f029	-0.47644165
76	0xbf8b89c3	-1.0901417
77	0xbf62c245	-0.8857768
78	0xbe8373ef	-0.25674388
79	0xbfb6a306	-1.4268501
80	0xc010235d	-2.2521584
81	0x407145e7	3.7698915
82	0xbfba36fb	-1.4548029
83	0x3e993bbf	0.29928395
84	0xbf0eff03	-0.55857867
85	0xc03324ee	-2.799129
86	0xbe8111d5	-0.25208917
87	0xbf0df0ad	-0.5544537
88	0xbf9e8726	-1.2384994
89	0x4013ed90	2.3113747
90	0x3e016b84	0.1263867
91	0x3ef78aad	0.4834799
92	0xbedd2fc2	-0.432005
93	0x400fd953	2.2476394
94	0xc03c4c4f	-2.9421575
95	0xbea5b720	-0.32366276
96	0xbda88158	-0.08227795
97	0x3dec9bf7	0.115531854
98	0x3f977eec	1.1835608
99	0x400e2b0c	2.2213774
100	0x4006cdb8	2.106306
101	0xbd819571	-0.06327332
102	0x3e9b81b8	0.30372405
103	0x3f3b96ed	0.7327717
104	0x3d002c1f	0.031292077
105	0x3efa009d	0.48828593
106	0x3d844363	0.064581655
107	0x3d5c8396	0.053836428
108	0x3addc4be	0.0016919596
109	0x3e119e56	0.14220557
110	0x3f4c94f2	0.7991477
111	0xbeb2465a	-0.348193
112	0x3dd49471	0.103798755
113	0x3ed2d745	0.41179863
114	0xbff02474	-1.8761125
115	0xbfc3b967	-1.5290955
116	0x3e3511e0	0.176826
117	0xbf91c602	-1.1388552
118	0x3d99ad41	0.07503749
119	0x3d01aa14	0.03165634
120	0x3f61273e	0.87950504
121	0x3ef4a16a	0.477794
122	0xbebfc371	-0.37453797
123	0x3f3c27b4	0.7349808
124	0x3ea64c69	0.3248017
125	0x3ec3caa2	0.38240534
126	0x3f9679fb	1.1755975
127	0x3f285cd1	0.65766627
128	0x3efa5d69	0.4889939
129	0xbf60179c	-0.87536025
130	0x3f30eebb	0.69114274
131	0xc042cee3	-3.0438774
132	0x3bc83ea8	0.006110985
133	0x3eca9ddb	0.3957356
134	0xbfa99b2f	-1.3250483
135	0xbea3558e	-0.3190121
136	0xbeeba4e4	-0.4602424
137	0xbaa645f4	-0.0012685643
138	0xbea2c66c	-0.3179201
139	0xbeb3cbd8	-0.35116458
140	0xbdb6e455	-0.0893027
141	0x3e1d123c	0.15338987
142	0x3e172c97	0.14763103
143	0xbd9dfd39	-0.07714314
144	0x3f2c5072	0.6731025
145	0xbe0362a6	-0.128306
146	0xbee9ced0	-0.45665598
147	0xbf2044c1	-0.6260491
148	0x3f4fbb33	0.8114502
149	0x3f1cc616	0.61239755
150	0xbe28bc55	-0.16478093
151	0x3e089d33	0.13341217
152	0x3eda5023	0.42639264
153	0x3e980d1a	0.29697496
154	0xbdb2b979	-0.08726782
155	0xbf03d2d0	-0.5149355
156	0xbf170931	-0.589984
157	0xbf1222be	-0.5708426
158	0x3f59808a	0.8496176
159	0x3f981193	1.1880363
160	0xbe01a3e6	-0.12660179
161	0x3effe684	0.49980557
162	0xbed932b7	-0.42421505
163	0xbf5a19de	-0.8519572
164	0x3f2080f9	0.62696797
165	0xbfcb7225	-1.5894209
166	0xbea5b5db	-0.32365307
167	0xbcf6b3e4	-0.030115075
168	0xbef10a0f	-0.47077987
169	0xbf90beb2	-1.1308196
170	0xc0342e70	-2.8153343
171	0x3dd76dea	0.10519011
172	0x3e9920ee	0.29907936
173	0xc00e0c08	-2.2194843
174	0xbe9a2984	-0.301098
175	0x3fb6b03b	1.4272531
176	0xbe8cc8c8	-0.27496934
177	0xc065eedf	-3.5927045
178	0x3f9f89f5	1.2463976
179	0x3f9e3409	1.235963
180	0x3fb3d8e5	1.4050566
181	0xbd91d6d6	-0.07121055
182	0xbea35cd1	-0.3190675
183	0x3fd4905c	1.6606555
184	0x3e0af917	0.13571583
185	0x3e289a5c	0.16465133
186	0x3eda2436	0.42605752
187	0x3dc37470	0.09543693
188	0x3e77e1e3	0.24207263
189	0xbf8bfb1b	-1.0936006
190	0x3fb75e84	1.4325719
191	0xbf1bba47	-0.6083111
192	0x3ea837aa	0.32854968
193	0x3ec9d604	0.39421093
194	0x3f223683	0.6336443
195	0xbeaf532b	-0.3424314
196	0xbe5a987c	-0.2134723
197	0x3f4319a5	0.76211005
198	0xbe84b147	-0.25916502
199	0x3e1d65a8	0.1537081
200	0xbeefe1b4	-0.46851885
201	0x3f11fd64	0.5702727
202	0xbe669389	-0.22517218
203	0xbd8bca3f	-0.06825685
204	0x3e688b94	0.22709495
205	0xbe57da6d	-0.21079417
206	0xbeaa30fd	-0.332405
207	0x3f701300	0.9377899
208	0x3eda4454	0.42630255
209	0x3e3eb1fc	0.18622583
210	0xbf1a6fa5	-0.60326606
211	0x3dda9a21	0.10673929
212	0x3e6ffbdb	0.23435919
213	0xbefeafa8	-0.4974339
214	0xbd245aab	-0.04012553
215	0xbe69b288	-0.2282201
216	0xbf14c15c	-0.58107543
217	0x3d61b67f	0.055105682
218	0x3f0c4ff1	0.5480948
219	0x3f6453b9	0.8919025
220	0x3f883465	1.064099
221	0xbe93afbc	-0.28845012
222	0x3e1e7e1a	0.15477791
223	0x3fe7f25a	1.8120835
224	0xbe92c9cb	-0.2866958
225	0x3f9205e0	1.1408043
226	0xc049bae0	-3.152031
227	0xbf24be79	-0.6435314
228	0xbeb7e2af	-0.35915133
229	0xbf42d132	-0.76100457
230	0x3eb804db	0.35941204
231	0xbfadf0d9	-1.3589126
232	0x3df8a22c	0.12140307
233	0x3f124833	0.5714142
234	0xbdf0c0be	-0.11755513
235	0xbd67d85b	-0.056602817
236	0x3e9fd5aa	0.312177
237	0xbf90c6a9	-1.1310626
238	0xbe4c7778	-0.19967449
239	0xbd1e26a3	-0.038611066
240	0x3f55f7b3	0.83581084
241	0x3de4ee6a	0.111782864
242	0xbf06ebe2	-0.5270368
243	0x3e83e7e2	0.2576285
244	0xbecd725b	-0.4012631
245	0x3f22eef7	0.6364588
246	0xbcc3c2cd	-0.0238966
247	0x3d77a497	0.0604597
248	0xbeb39bce	-0.35079807
249	0xbeb51474	-0.35367167
250	0x3e857711	0.26067403
251	0xbc336f50	-0.010951832
252	0xbf71a290	-0.94388676
253	0x3d4b9d0e	0.049710326
254	0xbedf47a8	-0.43609357
255	0xbd164357	-0.036685314

encoder.gru.bias_ih_l0 f4 [60]
0	0x3da79a97	0.081837825
1	0xbf2d75ff	-0.6775817
2	0x3eb1c0d6	0.34717435
3	0x3ef878d6	0.4852969
4	0xbe6a5163	-0.22882609
5	0xbd36ddba	-0.04464505
6	0xbe557aa9	-0.20847572
7	0x3f1d9c7c	0.615669
8	0x3e680b7d	0.22660632
9	0xbf1bf670	-0.6092291
10	0xbdf1ced2	-0.11807026
11	0xbe0e226d	-0.1388032
12	0xbee1ea05	-0.44123855
13	0x3f8d36bd	1.103233
14	0x3d84220a	0.06451805
15	0x3e4c0c5c	0.1992659
16	0xbeec3173	-0.46131477
17	0x3c8a2d53	0.016867315
18	0x3e7c8e3b	0.24663632
19	0x3e757402	0.23970035
20	0xbf0792f0	-0.52958584
21	0xbf4df8e2	-0.8045789
22	0xbf3237af	-0.69616216
23	0xbe025815	-0.12728913
24	0xbda513a8	-0.0806039
25	0xbf51f4f8	-0.8201442
26	0xbf308dfa	-0.6896664
27	0x3ed2a20e	0.41139263
28	0x3eb19dfe	0.3469085
29	0x3d28ff70	0.04125923
30	0xbf11bfe2	-0.56933415
31	0xbec05dc5	-0.3757154
32	0xbf9fb35a	-1.2476609
33	0xbf21dfc8	-0.6323209
34	0xbf184e87	-0.59494823
35	0x3e3f190f	0.18661903
36	0xbee2b630	-0.44279623
37	0xbeeaac2c	-0.45834482
38	0xbf084f3d	-0.5324591
39	0xbe344717	-0.17605244
40	0x3dafd254	0.08585039
41	0x3dd927f0	0.106033206
42	0x3e5e06c4	0.21682268
43	0x3e9afcd5	0.3027102
44	0xbd6b5204	-0.057451263
45	0xbcaf863d	-0.021426314
46	0x3ca45542	0.020060185
47	0xbf1a9993	-0.60390586
48	0xbe56f5c9	-0.20992197
49	0xbc5dafad	-0.013530654
50	0x3d860220	0.06543374
51	0xbcd8ea2b	-0.026478847
52	0x3d2f204c	0.04275541
53	0x3f230541	0.6367989
54	0xbd7b969c	-0.06142293
55	0x3e373ae1	0.17893554
56	0x3d5d1c38	0.05398199
57	0x3dba5a86	0.09099297
58	0xbe196e17	-0.14983402
59	0xbe06cc61	-0.13163902

encoder.gru.bias_hh_l0 f4 [60]
0	0x3da79a97	0.081837825
1	0xbf2d75ff	-0.6775817
2	0x3eb1c0d6	0.34717435
3	0x3ef878d6	0.4852969
4	0xbe6a5163	-0.22882609
5	0xbd36ddba	-0.04464505
6	0xbe557aa9	-0.20847572
7	0x3f1d9c7c	0.615669
8	0x3e680b7d	0.22660632
9	0xbf1bf670	-0.6092291
10	0xbdf1ced2	-0.11807026
11	0xbe0e226d	-0.1388032
12	0xbee1ea05	-0.44123855
13	0x3f8d36bd	1.103233
14	0x3d84220a	0.06451805
15	0x3e4c0c5c	0.1992659
16	0xbeec3173	-0.46131477
17	0x3c8a2d53	0.016867315
18	0x3e7c8e3b	0.24663632
19	0x3e757402	0.23970035
20	0xbf0792f0	-0.52958584
21	0xbf4df8e2	-0.8045789
22	0xbf3237af	-0.69616216
23	0xbe025815	-0.12728913
24	0xbda513a8	-0.0806039
25	0xbf51f4f8	-0.8201442
26	0xbf308dfa	-0.6896664
27	0x3ed2a20e	0.41139263
28	0x3eb19dfe	0.3469085
29	0x3d28ff70	0.04125923
30	0xbf11bfe2	-0.56933415
31	0xbec05dc5	-0.3757154
32	0xbf9fb35a	-1.2476609
33	0xbf21dfc8	-0.6323209
34	0xbf184e87	-0.59494823
35	0x3e3f190f	0.18661903
36	0xbee2b630	-0.44279623
37	0xbeeaac2c	-0.45834482
38	0xbf084f3d	-0.5324591
39	0xbe344717	-0.17605244
40	0xbde51ac6	-0.11186747
41	0xbf003d9c	-0.5009401
42	0xbea1ae6a	-0.3157838
43	0xbed5ecca	-0.41782218
44	0x3e53f7bf	0.20699976
45	0x3c3e6b6e	0.011622293
46	0x3eae731a	0.3407219
47	0xbefb037f	-0.49026105
48	0x3e924dfd	0.28575125
49	0xbde91f80	-0.11382961
50	0x3c5cd5ab	0.013478677
51	0x3cb307fd	0.021854395
52	0xbe52b50c	-0.20576876
53	0xbf38ae66	-0.7214111
54	0x3e0a55e2	0.13509324
55	0xbe835287	-0.256489
56	0xbe33f941	-0.17575552
57	0xbe365aa7	-0.17808019
58	0xbe192563	-0.14955668
59	0xbdf22f01	-0.118253715

encoder.gru.weight_ih_l1 f4 [60, 20]
0	0xbee0c6f2	-0.43901783
1	0x3e45b7f5	0.19308455
2	0xbf11e287	-0.5698628
3	0xbdde013e	-0.10840081
4	0xbdd07f1a	-0.10180493
5	0xbf1cb742	-0.6121713
6	0x3e36636d	0.17811365
7	0x3d9dcde3	0.077052854
8	0x3f703640	0.9383278
9	0xbf1ba1bd	-0.6079367
10	0x3e34990c	0.17636508
11	0x40241037	2.5634897
12	0x3dcc6fdc	0.09982273
13	0x3f650d44	0.89473367
14	0x3e2a427f	0.16626929
15	0x3f1318c1	0.57459646
16	0xbe8da793	-0.2766691
17	0xbf03cc2e	-0.5148343
18	0xbe2dada1	-0.16960765
19	0x3d8740bf	0.06604146
20	0x3cf7df69	0.030257897
21	0xc0d5aaa7	-6.6770816
22	0xbe56c5d8	-0.20973909
23	0x3def853e	0.11695336
24	0x3f63eb06	0.8903049
25	0xc034363b	-2.81581
26	0xbcddb8ef	-0.027065722
27	0x3d3fb0dc	0.046799526
28	0x3f2781c9	0.6543241
29	0x3e05ae42	0.13054755
30	0xbdb61011	-0.08889783
31	0x3f307197	0.68923324
32	0xbdcbab1f	-0.09944748
33	0x3f1b2c65	0.60614616
34	0xc02ad39c	-2.6691656
35	0x3d1d3824	0.038383618
36	0x3dce77bf	0.100814335
37	0xbdfabcea	-0.12243064
38	0x3deaba29	0.114612885
39	0xbd814ce7	-0.06313496
40	0x3d772754	0.06034024
41	0xbbaa89d2	-0.0052044177
42	0xbe8981b7	-0.26856777
43	0xc024f2c3	-2.577317
44	0x3f76e536	0.964435
45	0xbde6ca65	-0.112690724
46	0x3e90838e	0.28225368
47	0x3d8fe181	0.07025433
48	0xbebd2993	-0.3694578
49	0xbf45833c	-0.7715337
50	0x3e91ce0d	0.28477517
51	0xc00aa1bd	-2.1661217
52	0x3c8dd851	0.017315062
53	0x3ed179fa	0.40913373
54	0xbe6be7f0	-0.23037696
55	0x3d351e45	0.04421832
56	0x4029ca39	2.6529677
57	0xbb59470f	-0.0033153926
58	0xbfc26c89	-1.5189372
59	0x4042836a	3.0392709
60	0x3e3df0c7	0.1854888
61	0x3dc330b9	0.095307775
62	0xbd05c8b9	-0.032662127
63	0xbef38e5c	-0.4756955
64	0xbe88c2db	-0.26711163
65	0xbd5a39a5	-0.05327763
66	0xbd32df89	-0.04367021
67	0x3cc635de	0.024195608
68	0x3d9a3ec6	0.07531504
69	0xbea43c64	-0.32077324
70	0x3e45f462	0.19331506
71	0x3f542de1	0.82882506
72	0xbe08582c	-0.13314885
73	0x3ec36950	0.38166285
74	0xbd5ffa33	-0.054681968
75	0x3e5b0b45	0.21391018
76	0x3ddf21d4	0.10895124
77	0x3db82fa6	0.08993463
78	0xbdccd1ab	-0.100009285
79	0x3c2d125c	0.010563459
80	0xbe351e76	-0.17687401
81	0x3c64401f	0.013931303
82	0x3f3a5785	0.72789794
83	0xbeef8c9a	-0.46786958
84	0xbfc46f00	-1.5346375
85	0xbdb5efa8	-0.088836014
86	0xbd1a6af5	-0.03769966
87	0xbd5f14bf	-0.054463144
88	0xbf9ee5f6	-1.2413929
89	0xbf12f7e2	-0.5740949
90	0x3e968f44	0.29406178
91	0x3fcf44ed	1.619291
92	0xbe60c63d	-0.21950622
93	0x3fef9613	1.8717674
94	0xbdd0f644	-0.102032214
95	0x3e2019d5	0.15634854
96	0x3df2b3ca	0.11850698
97	0x3e1e71eb	0.15473144
98	0x3a3fd76b	0.00073181716
99	0x3d9ee51c	0.07758543
100	0x3d015b0d	0.031580973
101	0xbdee73af	-0.11643159
102	0xbdc56c0c	-0.09639749
103	0x3dabbec5	0.08385996
104	0x3ef34ae5	0.47518077
105	0xbd19797e	-0.03746938
106	0x3e2fb4f8	0.17158878
107	0x3c6eaf83	0.014568212
108	0xbec9031d	-0.39260188
109	0x3e8982d4	0.26857626
110	0x3d0f6fd8	0.035018772
111	0xbf1967c9	-0.5992399
112	0x3c769014	0.015048999
113	0xbecb4119	-0.39698103
114	0xbd803aaf	-0.06261193
115	0xbec2d0e2	-0.3804999
116	0x3c128966	0.008943891
117	0xbde8365b	-0.113384925
118	0xbd5fce44	-0.05464007
119	0x3d591dc7	0.053006914
120	0x3d8ca93a	0.06868215
121	0xbf1d070e	-0.6133889
122	0xbe80332b	-0.25039038
123	0x3dd2f7ab	0.10301145
124	0x3dd90346	0.105963275
125	0xbe702be5	-0.23454244
126	0xbf05b622	-0.5223104
127	0x3c903957	0.017605467
128	0xbd98b4e0	-0.07456374
129	0xbd09f3b7	-0.03367969
130	0xbda3a0bc	-0.07989642
131	0xbde5fa17	-0.112293415
132	0x3d01ab98	0.031657785
133	0xbe27ba61	-0.16379692
134	0xbe9a09a2	-0.30085474
135	0xbe42166f	-0.1895387
136	0xbd4d3579	-0.050099824
137	0x3d41c013	0.047302317
138	0x3caa9610	0.020823509
139	0xbc39ea9b	-0.011347438
140	0xbf46c585	-0.7764514
141	0xc0467fa5	-3.1015408
142	0x4070d7f8	3.7631817
143	0xbece0a9e	-0.40242475
144	0x419d2cef	19.64694
145	0xbfe1f747	-1.7653588
146	0x3e76f8bc	0.24118322
147	0x3e8bc329	0.27297333
148	0xc01e43ec	-2.4728956
149	0x3edad79a	0.42742616
150	0x418aec30	17.365326
151	0x3fb959bc	1.448051
152	0xbfab7d28	-1.339757
153	0x40607124	3.5069056
154	0xbf909044	-1.1294026
155	0x3fa214ba	1.2662575
156	0x3f95585c	1.166759
157	0xbf7de151	-0.9917193
158	0xbd0dbd5b	-0.03460441
159	0x3e8377fd	0.2567748
160	0x3f92b20c	1.1460586
161	0xbe125c2c	-0.14292973
162	0xc037a27f	-2.869293
163	0xbe142830	-0.14468455
164	0xbf01f864	-0.5076964
165	0xbda7c454	-0.081917435
166	0xbeb1f5d1	-0.34757856
167	0xbd3ae608	-0.04562953
168	0x3f1ef870	0.62097836
169	0x3f204305	0.62602264
170	0xbf3c3f4e	-0.73534095
171	0xbf51b2f7	-0.81913704
172	0x3fbf7760	1.4958305
173	0x3ee5d3d7	0.44888183
174	0x3d58d73b	0.052939635
175	0xbf29a498	-0.66266775
176	0x3ed41a6c	0.41426408
177	0x3fad1806	1.3522956
178	0xbd546364	-0.0518526
179	0xbbd57a1a	-0.0065148
180	0xbdf6ae5c	-0.12044975
181	0xbd1054bc	-0.03523706
182	0x3e73af82	0.2379742
183	0x3f7cb058	0.9870658
184	0x3ceec8ab	0.02914842
185	0xbd72eb77	-0.059306588
186	0xbddf8ae9	-0.10915167
187	0x3cc94c86	0.024572622
188	0xbe43b6ac	-0.19112653
189	0x3e1e453f	0.15456103
190	0xbe1ce11f	-0.15320252
191	0x3e88e5d3	0.26737842
192	0xbe3f99ba	-0.18710986
193	0x3dbb84c0	0.091561794
194	0x3e320d24	0.17387825
195	0xbd501908	-0.05080512
196	0xc0a4cec3	-5.1502395
197	0x3c87597d	0.016522164
198	0x40134d2e	2.3015857
199	0xbcbbd9ae	-0.022930946
200	0xbedd9ff3	-0.43286094
201	0x3e1d9226	0.15387782
202	0x3ddf47b8	0.10902351
203	0xbee72123	-0.4514247
204	0x3f3a724e	0.72830665
205	0x3f0649e2	0.52456486
206	0x3c5f7dcd	0.013640833
207	0xbc109fd1	-0.008827166
208	0x404b1f48	3.1737843
209	0xbba736d6	-0.0051029725
210	0x3cbf78dc	0.02337306
211	0x3f2b89f2	0.6700736
212	0x3e41e2ba	0.18934146
213	0x3f75f04b	0.9606978
214	0xbe0dd04c	-0.1384899
215	0xc1168bc6	-9.409124
216	0xbdd62c58	-0.10457677
217	0x3f092cda	0.53584063
218	0xbd60214b	-0.05471925
219	0x3def1dae	0.11675583
220	0x3e193593	0.14961843
221	0x3e82a816	0.25518864
222	0x3dcffb61	0.101553686
223	0x3f029a8d	0.51017076
224	0x3eb6e370	0.35720396
225	0xbc6467d7	-0.013940773
226	0xbe171c20	-0.14756823
227	0x3c110512	0.0088513065
228	0xbe9b4f40	-0.303339
229	0x3d450e41	0.048109297
230	0xbe4baca3	-0.19890074
231	0xbf1bfb2d	-0.6093014
232	0x3d107ecf	0.035277184
233	0xbeb7eb56	-0.35921735
234	0x3d063325	0.03276362
235	0xbe2e190d	-0.17001744
236	0xbe0f2d83	-0.13982205
237	0xbbbd5db4	-0.0057789925
238	0x3e9a8467	0.3017914
239	0xbe6d8178	-0.2319392
240	0xbe6f5a4d	-0.23374291
241	0x4018d66b	2.388087
242	0xbe34a5d4	-0.17641383
243	0xbe94b68a	-0.29045516
244	0x3f4eb56a	0.80745566
245	0x3fc7d797	1.5612668
246	0xbe1d2c8e	-0.15349028
247	0xbdfaabdb	-0.1223981
248	0xbfd40378	-1.6563559
249	0xbf1b294b	-0.60609883
250	0x3da54ecf	0.08071672
251	0xbfdd6c6f	-1.7298716
252	0x3e4786f8	0.1948508
253	0xbf10abdd	-0.5651224
254	0x3f8b256b	1.0870794
255	0xc08a1c65	-4.315966

encoder.gru.weight_hh_l1 f4 [60, 20]
0	0x3f97da01	1.1863405
1	0x401ed7eb	2.4819286
2	0xbf166962	-0.5875455
3	0xbf750c60	-0.9572201
4	0x3f1097f8	0.56481886
5	0x3f83fd80	1.0311737
6	0xbf937e3a	-1.1522896
7	0xbfd6ad78	-1.6771688
8	0x3f5ef60b	0.8709418
9	0xbd8b30e6	-0.06796436
10	0x3eaf0aaa	0.34187824
11	0xbf2ae0ca	-0.6674925
12	0x3f2c6b0b	0.67350835
13	0xbf824358	-1.0176802
14	0x3f2eac3e	0.6823157
15	0xbf89763a	-1.0739205
16	0x3eb3fafb	0.3515242
17	0xbfb1b64c	-1.3883758
18	0xbf710ecd	-0.9416321
19	0xbd3fcaf8	-0.046824425
20	0x3f8ebe7e	1.1151884
21	0xbcbeff6c	-0.023315154
22	0xbe3c6330	-0.18397212
23	0xc003bd43	-2.0584266
24	0xbedae707	-0.42754385
25	0x3fe86ba2	1.8157847
26	0xbda02402	-0.07819368
27	0x3dd4bb26	0.10387258
28	0x3fc70259	1.5547591
29	0xbcfd9909	-0.030956762
30	0xbd2de66d	-0.04245608
31	0xbf42e4cb	-0.7613036
32	0xbe149a58	-0.14512002
33	0xbe73a5c3	-0.23793702
34	0xbe6d986e	-0.23202679
35	0xbe562e01	-0.20915987
36	0xbf89a52e	-1.0753534
37	0x3bb53dbb	0.0055310405
38	0x3e24b6b9	0.16085328
39	0x3e063746	0.13107023
40	0xbf844c5a	-1.0335801
41	0x3e7a7d3a	0.24461833
42	0x3e38a290	0.18030763
43	0x3c11e592	0.0089048315
44	0xbe99d49e	-0.30045027
45	0x3fa1e09a	1.2646668
46	0x3fc4cdb3	1.5375274
47	0x3ed6793f	0.41889378
48	0x3e973bfe	0.29537958
49	0xbe36e1ea	-0.17859617
50	0x3e153063	0.1456924
51	0xbf053e95	-0.5204862
52	0x3ee4ed59	0.44712332
53	0x3f8baaa5	1.0911452
54	0xbe49585e	-0.19662616
55	0xbe9c4c7d	-0.30527106
56	0xbfc4acdf	-1.5365256
57	0xbeb594c0	-0.3546505
58	0xbf17de7b	-0.59323853
59	0xbd1ba98c	-0.03800349
60	0x3e1f35d9	0.15547885
61	0xbe0e71fb	-0.13910668
62	0xbe833f1a	-0.2563408
63	0xbf7a18f7	-0.97694343
64	0x3eb655b6	0.35612267
65	0x3fb4d2a3	1.4126781
66	0xbe7eeefc	-0.24895853
67	0xbe3236ea	-0.1740376
68	0x3f224311	0.63383585
69	0x3e47926e	0.19489452
70	0xbd17b42d	-0.037037063
71	0xbf09380a	-0.53601134
72	0xbe5a294f	-0.2130482
73	0xbeab6737	-0.33477184
74	0xbcd728e4	-0.026264615
75	0x3b7f0fd0	0.0038919337
76	0xbee6b9cd	-0.4506363
77	0xbe8cde17	-0.2751319
78	0xbe994281	-0.2993355
79	0x3f28ded3	0.65965
80	0xbe6dd60f	-0.23226188
81	0x3e5f22cf	0.21790622
82	0x3eb6556d	0.3561205
83	0x3ed0172d	0.40642682
84	0x3fa7e88e	1.3117845
85	0xba5c415b	-0.00084020727
86	0xbfd98c09	-1.699586
87	0x403a15b6	2.9075751
88	0x3edaaeb0	0.427114
89	0x3e4a84ab	0.19777171
90	0x3f2c8db7	0.6740374
91	0x3dce2ab9	0.100667424
92	0x3fb0ed53	1.3822426
93	0x3ee9dabe	0.456747
94	0x3ef3008d	0.47461358
95	0xbfdbac7f	-1.7162017
96	0x3f696420	0.91168404
97	0x3de3fe17	0.11132448
98	0x405b8929	3.4302466
99	0xbf8ec61e	-1.115421
100	0x3f10b8a0	0.56531715
101	0xbe07d2ef	-0.13264059
102	0x3f36fbe6	0.71478117
103	0xbfd541fd	-1.6660763
104	0x3e42b7e8	0.19015467
105	0xbcb4ba1b	-0.022061398
106	0x3e2240df	0.15845059
107	0x3d1c2661	0.03812254
108	0x3f3e3be9	0.74310166
109	0xbe235503	-0.15950398
110	0xbdfebdf8	-0.124385774
111	0xbf2777e9	-0.65417343
112	0xbe3df2e1	-0.18549682
113	0x3f99cc45	1.2015463
114	0xbceeb5ef	-0.029139487
115	0x3d583e5d	0.05279385
116	0xbf2dcb6a	-0.6788851
117	0xbf2499a4	-0.64296937
118	0xbe192c4f	-0.14958309
119	0x3e61e649	0.22060503
120	0x3e02714d	0.12738533
121	0xbe818e48	-0.25303864
122	0xbe80a329	-0.2512448
123	0x3f100ed4	0.56272626
124	0x3ec82022	0.39087015
125	0x3f9aec7c	1.2103419
126	0xbe958d6a	-0.29209453
127	0x3a98f8da	0.0011670843
128	0xbe5d8055	-0.21630986
129	0xbccee8f2	-0.025257561
130	0x3d8a933d	0.06766365
131	0x3ebf0e9b	0.3731583
132	0x3d7e1c2c	0.062038586
133	0x3f7f9713	0.99839896
134	0xbdd00ecf	-0.101590745
135	0xbdff36e8	-0.124616444
136	0xbe66c8a0	-0.2253747
137	0x3e04a5bf	0.12953852
138	0xbd182e8a	-0.037153758
139	0xbfa7878a	-1.3088238
140	0x40c41b2c	6.128317
141	0xc01ab034	-2.4170046
142	0xbe831755	-0.25603738
143	0x3ff92b9f	1.9466437
144	0x40ab5ecd	5.3553224
145	0x3e3944af	0.18092607
146	0x3f822859	1.0168563
147	0xc1030fc9	-8.191354
148	0xc0d4d5b6	-6.6510878
149	0xbfad83a0	-1.3555794
150	0x3fa3610e	1.2763994
151	0xc084945c	-4.1431103
152	0xc012de3a	-2.2948136
153	0x409c7c6a	4.8901873
154	0x3e174b7e	0.14774892
155	0x3f53b65c	0.82700133
156	0x3fc6d363	1.553326
157	0x3eb70757	0.35747787
158	0x3ea4e09c	0.32202613
159	0x40ce9f73	6.456964
160	0x3f427d36	0.75972307
161	0x3c3818f5	0.011236419
162	0xbf37ae1b	-0.7175004
163	0xbfe42346	-1.7823265
164	0x3f8507b2	1.0392973
165	0x4011a306	2.2755752
166	0xbec37ac3	-0.38179597
167	0x3e24618c	0.16052836
168	0x3f7b7175	0.98219997
169	0xbd1d624c	-0.03842382
170	0xbdd910ac	-0.10598883
171	0xbf7d7766	-0.9901031
172	0xbeb13db8	-0.346174
173	0x3f5e48fd	0.8683012
174	0xbc395bb8	-0.011313371
175	0x3d4425c2	0.04788757
176	0xbec7a7b8	-0.38995147
177	0xbde5c175	-0.112185396
178	0x3b7d60fb	0.0038662541
179	0x3fd60135	1.6719118
180	0x3f283eba	0.65720713
181	0x3d829eb0	0.063779235
182	0xbe34b783	-0.17648129
183	0x3c96cdc4	0.018408664
184	0x3de9c827	0.11415129
185	0xbcdc97b2	-0.026927803
186	0x3f0ebb10	0.55754185
187	0xbd34aad0	-0.044108212
188	0x3e2539b1	0.16135289
189	0x40937e1f	4.6091456
190	0xbc202f09	-0.009776839
191	0xbfe60a92	-1.7971976
192	0xbe074071	-0.13208176
193	0xbe026132	-0.1273239
194	0xbdf85958	-0.12126416
195	0x3d9123ca	0.07086904
196	0x3e12fc83	0.14354138
197	0xbe13db8a	-0.14439216
198	0x3d892126	0.06695776
199	0xbed8b804	-0.42327893
200	0x3f0cb655	0.54965717
201	0x3eaee3c8	0.34158158
202	0x3f4367c8	0.7633023
203	0xbfd5a661	-1.66914
204	0xbefdf8d7	-0.49603912
205	0xbf74cd58	-0.9562583
206	0xbe4dfb79	-0.2011546
207	0xbc77fd67	-0.015136099
208	0x3f060bc7	0.5236172
209	0x3d736c8b	0.059429687
210	0xbea062c3	-0.3132535
211	0xbe504d9b	-0.20342104
212	0xbf90e9f8	-1.1321402
213	0xc036e507	-2.8577287
214	0xbea1c271	-0.3159366
215	0x3f3d160c	0.73861766
216	0x3f3aee46	0.73019826
217	0x3e13eb10	0.14445138
218	0xc000b8ad	-2.0112717
219	0x3f9a7a36	1.2068546
220	0x3eb362e6	0.3503639
221	0xbd1855a2	-0.03719104
222	0xbf718eeb	-0.943587
223	0xbf55fb0c	-0.8358619
224	0xbe928b3e	-0.28621858
225	0x3ffb22cc	1.9619994
226	0x3c9f2a6b	0.019429406
227	0xbd31effc	-0.043441758
228	0x3ebaa5e3	0.36454687
229	0x3e904cd7	0.28183624
230	0xbb07c507	-0.0020716803
231	0xbeaa3637	-0.33244488
232	0xbef6a415	-0.4817206
233	0x3d47f54a	0.04881791
234	0x3ed4863e	0.4150867
235	0x3ee22265	0.44166866
236	0xbf83ed62	-1.0306818
237	0x3fea07da	1.8283646
238	0xbdec04bc	-0.115243405
239	0x3dbeb2bd	0.09311435
240	0x3fc0cceb	1.5062536
241	0xbfdc06ae	-1.7189538
242	0xc014f6c7	-2.327562
243	0xbd30d97e	-0.043176167
244	0x40007c75	2.0075963
245	0x3f3c12a7	0.7346596
246	0xbf849912	-1.0359213
247	0xbfb19319	-1.3873016
248	0xbed8d262	-0.4234801
249	0xbe8a5daf	-0.270246
250	0xbf395462	-0.7239438
251	0xc02ec822	-2.7309651
252	0x3fc27a49	1.5193568
253	0x408796b4	4.2371464
254	0xbfd0c579	-1.6310264
255	0xbf830a71	-1.0237561

encoder.gru.bias_ih_l1 f4 [60]
0	0x3fa63aee	1.2986734
1	0xbf203cb7	-0.62592643
2	0x3d9dd199	0.07705993
3	0x3efe375a	0.49651605
4	0x3f91ad66	1.1381042
5	0x3ed8c379	0.42336634
6	0xbdeabf2a	-0.11462243
7	0x3e531537	0.20613562
8	0xbda5d70e	-0.08097659
9	0x3f08aa60	0.5338497
10	0x3f1d90f4	0.61549306
11	0x3ecbb40c	0.39785802
12	0xbe4830fa	-0.19549933
13	0x3dd251cd	0.102695085
14	0xbf88263c	-1.0636668
15	0xbcc96a7f	-0.024586914
16	0xbd1f3c14	-0.038875654
17	0xbf14ff14	-0.5820172
18	0x3ef53e45	0.4789907
19	0x3fcffd21	1.6249124
20	0xbea54576	-0.32279557
21	0xbf8201a8	-1.0156755
22	0x3f35fe87	0.710915
23	0xbfa29454	-1.2701516
24	0xbe9821a7	-0.29713175
25	0x3dcfe0eb	0.101503216
26	0xbfa5d627	-1.2955979
27	0xbefb8844	-0.491274
28	0xbf58ed9f	-0.8473758
29	0xbf30f960	-0.69130516
30	0xbff0f3cc	-1.8824401
31	0xbe17402a	-0.1477057
32	0xbf82adee	-1.0209329
33	0xbf4c6026	-0.7983421
34	0xbf4f8484	-0.8106158
35	0xbfa0ad18	-1.2552824
36	0xbf991ea9	-1.1962482
37	0xbfcbe4e9	-1.5929233
38	0xbeab926d	-0.33510152
39	0xbf1ce806	-0.6129154
40	0x3f25797e	0.6463851
41	0x3dad7886	0.08470254
42	0xbea02320	-0.31276798
43	0x3f255255	0.64578754
44	0x3f10e1e5	0.5659469
45	0xbeb79747	-0.35857603
46	0x3c22c1aa	0.009933868
47	0x3f18127c	0.59403205
48	0xbea81345	-0.328272
49	0xbf3b0720	-0.73057747
50	0xbead97fc	-0.33905017
51	0xbe8d3841	-0.2758198
52	0xbe93bff7	-0.28857395
53	0x3e55d084	0.20880324
54	0xbedf54d1	-0.43619397
55	0xbe9f6fc1	-0.3113995
56	0xbe211ca6	-0.15733585
57	0xbeab2766	-0.33428496
58	0x3e0f34a0	0.13984919
59	0x3f73393a	0.95009196

encoder.gru.bias_hh_l1 f4 [60]
0	0x3fa63aee	1.2986734
1	0xbf203cb7	-0.62592643
2	0x3d9dd199	0.07705993
3	0x3efe375a	0.49651605
4	0x3f91ad66	1.1381042
5	0x3ed8c379	0.42336634
6	0xbdeabf2a	-0.11462243
7	0x3e531537	0.20613562
8	0xbda5d70e	-0.08097659
9	0x3f08aa60	0.5338497
10	0x3f1d90f4	0.61549306
11	0x3ecbb40c	0.39785802
12	0xbe4830fa	-0.19549933
13	0x3dd251cd	0.102695085
14	0xbf88263c	-1.0636668
15	0xbcc96a7f	-0.024586914
16	0xbd1f3c14	-0.038875654
17	0xbf14ff14	-0.5820172
18	0x3ef53e45	0.4789907
19	0x3fcffd21	1.6249124
20	0xbea54576	-0.32279557
21	0xbf8201a8	-1.0156755
22	0x3f35fe87	0.710915
23	0xbfa29454	-1.2701516
24	0xbe9821a7	-0.29713175
25	0x3dcfe0eb	0.101503216
26	0xbfa5d627	-1.2955979
27	0xbefb8844	-0.491274
28	0xbf58ed9f	-0.8473758
29	0xbf30f960	-0.69130516
30	0xbff0f3cc	-1.8824401
31	0xbe17402a	-0.1477057
32	0xbf82adee	-1.0209329
33	0xbf4c6026	-0.7983421
34	0xbf4f8484	-0.8106158
35	0xbfa0ad18	-1.2552824
36	0xbf991ea9	-1.1962482
37	0xbfcbe4e9	-1.5929233
38	0xbeab926d	-0.33510152
39	0xbf1ce806	-0.6129154
40	0x3f0e82cb	0.55668324
41	0xbfbfc515	-1.498202
42	0x3ea42125	0.32056537
43	0x3f15ad8d	0.5846794
44	0x3f4165d3	0.75545996
45	0xbeec85ac	-0.46195734
46	0x3e33b155	0.17548116
47	0xbfde710b	-1.7378248
48	0xbe861375	-0.2618672
49	0x3cdb9ea1	0.026809039
50	0x3e0ba79f	0.13638161
51	0xbea8c805	-0.32965103
52	0x3f320525	0.695391
53	0xbf18efff	-0.59741205
54	0xbf91eb34	-1.1399903
55	0x3d1849a3	0.0371796
56	0x3f1552a8	0.5832925
57	0x3fe58a22	1.793278
58	0xbf0bdeb7	-0.5463671
59	0x3f4646ba	0.7745167

decoder.embedding.weight f4 [30, 100]
0	0x3d8e0837	0.069351606
1	0x3e351188	0.17682469
2	0x3dc325fc	0.09528729
3	0x3e1d26ee	0.15346882
4	0xbe3ace55	-0.18242772
5	0x3b45f152	0.0030203653
6	0xbd25d0c7	-0.04048231
7	0x3e6d372b	0.23165576
8	0xbe56f2ec	-0.20991105
9	0x3d865127	0.06558447
10	0x3d898fe6	0.067168996
11	0x3b12edd3	0.0022419586
12	0xbda66b62	-0.081259504
13	0x3df1e8a3	0.1181195
14	0xbbdc7560	-0.0067278594
15	0x3e72300a	0.23651138
16	0x3e2768a6	0.16348514
17	0xbd2bc1ba	-0.0419328
18	0xbd1054fa	-0.03523729
19	0x3ddaf27a	0.1069078
20	0x3e864da7	0.2623112
21	0xbde11d47	-0.10991912
22	0x3d8082ec	0.06274971
23	0xbdde50bc	-0.108552426
24	0xbd8197b8	-0.06327766
25	0xbe7df271	-0.24799515
26	0x3e36c3a2	0.17848065
27	0xbda8f7b3	-0.0825037
28	0xbdb6aefe	-0.08920096
29	0x3e0cc4a7	0.13746892
30	0x3d2effbb	0.042724352
31	0x3d2e74ef	0.042591985
32	0xbe8da780	-0.27666855
33	0x3cdaa6ed	0.026690925
34	0xbcb59422	-0.022165362
35	0x3dd4f650	0.10398543
36	0xbdce46c8	-0.10072094
37	0x3dc28505	0.09498028
38	0xbd36e7ea	-0.044654764
39	0xbe2c2d2e	-0.1681411
40	0x3d13084b	0.03589658
41	0x3dd4e054	0.1039435
42	0x3e58975f	0.21151493
43	0x3dd81953	0.10551705
44	0x3e15caec	0.1462819
45	0x3d379549	0.044820104
46	0xbde71179	-0.112826295
47	0x3e05699a	0.13028565
48	0xbde2ef25	-0.110807694
49	0xbe62182f	-0.22079538
50	0x3db561d4	0.0885655
51	0xbc94a1b3	-0.01814351
52	0x3e2407f5	0.1601866
53	0xbd1a098d	-0.037606765
54	0xbd01197a	-0.031518437
55	0x3d3de5a9	0.0463616
56	0x3d5dff0c	0.05419831
57	0xbdff0578	-0.12452215
58	0x3deebb7d	0.11656854
59	0x3dac9115	0.0842611
60	0xbd5153fd	-0.051105488
61	0x3d3e9b44	0.04653479
62	0x3ddaff05	0.10693172
63	0xbdecb530	-0.11557996
64	0x3d89d30d	0.06729708
65	0x3b5eecaa	0.0034015574
66	0xbd5e63ea	-0.054294504
67	0xbe937bb0	-0.28805304
68	0xbdc16532	-0.094431296
69	0x3d38dc12	0.04513175
70	0x3d849995	0.06474606
71	0x3c669e58	0.014075838
72	0x3ced9e73	0.029006219
73	0xbd134b34	-0.03596039
74	0xbca5030e	-0.020143058
75	0x3d3373e3	0.04381169
76	0xbd2ed5d6	-0.0426844
77	0xbdfbfe19	-0.12304325
78	0xbdbfd203	-0.093662284
79	0x3e12e75a	0.14346066
80	0x3d2f132c	0.042742893
81	0x3e21cb3e	0.15800187
82	0x3d78f9ef	0.06078523
83	0xbd4abc55	-0.049496014
84	0xbd51e011	-0.051239077
85	0x3d3ca40d	0.04605489
86	0x3ddac6d8	0.10682458
87	0xbe1de7d3	-0.15420465
88	0x3da279d1	0.07933391
89	0xbd338571	-0.04382843
90	0x3d01100d	0.031509448
91	0xbd825029	-0.063629456
92	0x3d6256da	0.05525861
93	0x3b42c37f	0.0029718576
94	0x3d9c16c8	0.07621533
95	0xbd0c6662	-0.034277327
96	0xbd9020d8	-0.070375144
97	0x3e59324f	0.21210597
98	0x3e11457e	0.14186665
99	0xbccfb886	-0.025356542
100	0xbe450700	-0.19240952
101	0x3c90ffff	0.017700193
102	0x3df3f151	0.11911262
103	0x3d54f577	0.051991906
104	0x3d09b897	0.033623304
105	0xbca1fbba	-0.019773353
106	0x3b9ed9da	0.0048477473
107	0xbde552ec	-0.11197457
108	0xbd0269e8	-0.03183928
109	0x3e8a9362	0.2706557
110	0xbe3d46df	-0.18484066
111	0xbe1a3ae3	-0.15061526
112	0xbd9c7a7e	-0.07640551
113	0x3e207033	0.156678
114	0xbd7860d5	-0.06063922
115	0xbe106b82	-0.14103511
116	0xbd1e2736	-0.038611613
117	0x3e2a90b1	0.16656758
118	0xbc815307	-0.01578666
119	0xbcb4aab4	-0.022054054
120	0xbd89a726	-0.06721334
121	0xbda90740	-0.08253336
122	0xbe0c6efa	-0.13714209
123	0xbbbc544a	-0.0057473527
124	0xbda40c4f	-0.0801016
125	0x3d77c939	0.060494635
126	0x3b7c82d7	0.0038530135
127	0xbe00cbba	-0.12577716
128	0xbe361e38	-0.17784965
129	0xbcd25907	-0.025677217
130	0xbdc8697d	-0.09785745
131	0xbe137356	-0.14399466
132	0xbdd4b12c	-0.10385355
133	0xbdff5507	-0.124673896
134	0xbd27ee53	-0.040998768
135	0xbe9602d5	-0.29299036
136	0x3d2149d6	0.039377056
137	0xbd27f1dd	-0.041002143
138	0xbe2ff54b	-0.17183416
139	0xbd39cd08	-0.04536155
140	0x3da2a2ab	0.07941183
141	0xbe04af9d	-0.12957616
142	0x3e314237	0.17310415
143	0x3ea5c371	0.32375672
144	0x3c6ff74b	0.014646362
145	0x3da2e29a	0.07953377
146	0x3d2c72fb	0.04210184
147	0x3e66cdb9	0.22539414
148	0xbd72a146	-0.059235834
149	0x3dcbc211	0.099491246
150	0xbcc9daca	-0.02464046
151	0xbdd82fe6	-0.10556011
152	0xbb8874db	-0.004164321
153	0xbf0af982	-0.5428697
154	0xbdd86ca7	-0.10567599
155	0xbe026391	-0.12733294
156	0x3e4a6596	0.19765314
157	0xbd608dfa	-0.0548229
158	0xbdadd0b9	-0.08487076
159	0xbd33df9b	-0.04391442
160	0xbe192820	-0.14956713
161	0xbc973800	-0.01845932
162	0xbe08f611	-0.13375117
163	0x3dcf9016	0.10134904
164	0x3d562c47	0.05228832
165	0x3d402f36	0.046920024
166	0x3c969926	0.018383574
167	0xbce8888b	-0.028385421
168	0xbcaff93c	-0.021481149
169	0x3d8b3b29	0.06798393
170	0x3ddc966f	0.107708804
171	0xbcba736e	-0.02276012
172	0xbe1d871e	-0.15383574
173	0xbde7ead4	-0.11324087
174	0xbdc091ca	-0.09402807
175	0x3c192b84	0.009348754
176	0xbc9b8e71	-0.01898882
177	0xbd746c7b	-0.059673768
178	0xbe74d4b0	-0.23909259
179	0x3d071528	0.03297916
180	0x3d4ac5c2	0.049505003
181	0x3da6e696	0.081494495
182	0x3df090fa	0.11746402
183	0x3d86ca37	0.06581538
184	0xbdc1599b	-0.09440919
185	0xbe3e4807	-0.18582164
186	0x3ccc036d	0.024903977
187	0x3d825730	0.06364286
188	0x3c7be253	0.015373784
189	0x3e894d63	0.26816854
190	0x3d7e7a3f	0.0621283
191	0x3e40724a	0.18793598
192	0xbd3a197c	-0.04543446
193	0x3df2c231	0.11853445
194	0x3d66045c	0.0561565
195	0xbdb672cb	-0.08908614
196	0xbdb7abcb	-0.08968314
197	0x3bc0b0d2	0.0058804536
198	0xbc8bcc08	-0.017065063
199	0xbd0bf058	-0.034164757
200	0x3e53d318	0.20685995
201	0xbea64f05	-0.32482162
202	0x3dd3167b	0.10307022
203	0xbe4c7795	-0.19967492
204	0xbe115137	-0.14191137
205	0x3d2b5733	0.041831207
206	0x3d1826e4	0.037146464
207	0x3e6f8d8c	0.2339384
208	0xbe99166d	-0.29899922
209	0x3d06a6be	0.03287386
210	0x3e76d4e4	0.24104649
211	0x3ec95551	0.39322904
212	0x3d712660	0.058874488
213	0x3dc92345	0.0982118
214	0x3df90dbc	0.12160823
215	0x3cbbe5d0	0.022936732
216	0xbce052cd	-0.027383232
217	0x3e4e3221	0.2013631
218	0x3be36888	0.0069399513
219	0xbd21bebb	-0.039488535
220	0x3e1f337c	0.15546983
221	0xbd94247c	-0.07233521
222	0x3e1e51ac	0.15460843
223	0xbe3e7bba	-0.18601885
224	0xbee0dc4b	-0.4391807
225	0x3e58784d	0.21139641
226	0x3ef644c8	0.4809935
227	0x3e024441	0.1272135
228	0x3e60d1a0	0.21954966
229	0xbe35576b	-0.17709129
230	0x3d4a9d4d	0.04946642
231	0x3e38cc3e	0.18046662
232	0x3dbfdb94	0.09368053
233	0x3d961b55	0.07329432
234	0x3a8ffa6b	0.0010984665
235	0x3dd48b68	0.10378152
236	0x3e2bf002	0.16790774
237	0xbb4752f1	-0.0030414427
238	0xbc750fba	-0.014957363
239	0x3c3dd943	0.011587444
240	0x3d5f7147	0.05455139
241	0x3e01f704	0.12691885
242	0x3e2a8fe9	0.1665646
243	0xbe54a831	-0.20767285
244	0xbe15a0a6	-0.14612064
245	0xbeb16cbd	-0.34653273
246	0xbeb73d86	-0.35789126
247	0x3e54dba0	0.20786905
248	0xbea28fa6	-0.3175022
249	0x3cea39c5	0.028592
250	0xbe572914	-0.21011764
251	0xbd1f0c74	-0.038830236
252	0xbdd4fdc3	-0.10399964
253	0x3c1568ca	0.009119222
254	0x3d35c3ab	0.044376057
255	0xbe1262d1	-0.14295508
